Step experiment original sample, look back 100, 4 epochs, sigmoid
==========================================================================================
Layer (type:depth-idx)                   Output Shape              Param #
==========================================================================================
├─Flatten: 1-1                           [-1, 200]                 --
├─Sequential: 1-2                        [-1, 1]                   --
|    └─Linear: 2-1                       [-1, 64]                  12,864
|    └─ReLU: 2-2                         [-1, 64]                  --
|    └─BatchNorm1d: 2-3                  [-1, 64]                  128
|    └─Linear: 2-4                       [-1, 64]                  4,160
|    └─ReLU: 2-5                         [-1, 64]                  --
|    └─BatchNorm1d: 2-6                  [-1, 64]                  128
|    └─Linear: 2-7                       [-1, 64]                  4,160
|    └─ReLU: 2-8                         [-1, 64]                  --
|    └─BatchNorm1d: 2-9                  [-1, 64]                  128
|    └─Linear: 2-10                      [-1, 64]                  4,160
|    └─ReLU: 2-11                        [-1, 64]                  --
|    └─BatchNorm1d: 2-12                 [-1, 64]                  128
|    └─Linear: 2-13                      [-1, 1]                   65
|    └─Sigmoid: 2-14                     [-1, 1]                   --
==========================================================================================
Total params: 25,921
Trainable params: 25,921
Non-trainable params: 0
Total mult-adds (M): 0.05
==========================================================================================
Input size (MB): 7.63
Forward/backward pass size (MB): 0.00
Params size (MB): 0.10
Estimated Total Size (MB): 7.73
==========================================================================================
…
