Look back: 400
Epochs: 320
Train ratio: 0.8
Batch size: 40000
Learning rate: 0.01
Weight Decay: 0
Momentum: 0.9
==========================================================================================
Layer (type:depth-idx)                   Output Shape              Param #
==========================================================================================
├─Flatten: 1-1                           [-1, 800]                 --
├─Sequential: 1-2                        [-1, 64]                  --
|    └─Linear: 2-1                       [-1, 64]                  51,264
|    └─ReLU: 2-2                         [-1, 64]                  --
|    └─BatchNorm1d: 2-3                  [-1, 64]                  128
|    └─Linear: 2-4                       [-1, 64]                  4,160
|    └─ReLU: 2-5                         [-1, 64]                  --
|    └─BatchNorm1d: 2-6                  [-1, 64]                  128
├─GRU: 1-3                               [-1, 64, 64]              12,864
├─Sequential: 1-4                        [-1, 1]                   --
|    └─ReLU: 2-7                         [-1, 64]                  --
|    └─BatchNorm1d: 2-8                  [-1, 64]                  128
|    └─Linear: 2-9                       [-1, 64]                  4,160
|    └─ReLU: 2-10                        [-1, 64]                  --
|    └─BatchNorm1d: 2-11                 [-1, 64]                  128
|    └─Linear: 2-12                      [-1, 1]                   65
|    └─Sigmoid: 2-13                     [-1, 1]                   --
==========================================================================================
Total params: 73,025
Trainable params: 73,025
Non-trainable params: 0
Total mult-adds (M): 0.13
==========================================================================================
Input size (MB): 13.43
Forward/backward pass size (MB): 0.03
Params size (MB): 0.28
Estimated Total Size (MB): 13.74
====
…
